…
,    0,    0,    0,    0,    0,    0,    0,    0,\n","            0,    0,    0,    0], dtype=torch.int32), 1, 10)"]},"metadata":{},"execution_count":92}]},{"cell_type":"code","source":["model.eval()"],"metadata":{"colab":{"base_uri":"https://localhost:8080/"},"id":"8lsdGP2kG6wz","executionInfo":{"status":"ok","timestamp":1666009907206,"user_tz":-180,"elapsed":2,"user":{"displayName":"Михаил Яковлев","userId":"08377244301379534836"}},"outputId":"5b0f89d7-4969-4f26-b938-bdb776474269"},"execution_count":null,"outputs":[{"output_type":"execute_result","data":{"text/plain":["CNN(\n","  (embeddings): Embedding(16042, 100, padding_idx=0)\n","  (dropout_1): Dropout(p=0.2, inplace=False)\n","  (conv_0): Conv2d(1, 100, kernel_size=(3, 100), stride=(1, 1))\n","  (conv_1): Conv2d(1, 100, kernel_size=(4, 100), stride=(1, 1))\n","  (conv_2): Conv2d(1, 100, kernel_size=(5, 100), stride=(1, 1))\n","  (fc): Linear(in_features=300, out_features=3, bias=True)\n","  (dropout_2): Dropout(p=0.4, inplace=False)\n",")"]},"metadata":{},"execution_count":93}]},{"cell_type":"code","source":["ans = pd.Series()"],"metadata":{"colab":{"base_uri":"https://localhost:8080/"},"id":"mFyC_r4HH4Pf","executionInfo":{"status":"ok","timestamp":1666009909134,"user_tz":-180,"elapsed":576,"user":{"displayName":"Михаил Яковлев","user
…
   0,    0,    0,    0,    0,    0,    0,    0,\n","            0,    0,    0,    0], dtype=torch.int32), 1, 10)"]},"metadata":{},"execution_count":238}]},{"cell_type":"code","source":["model.eval()"],"metadata":{"colab":{"base_uri":"https://localhost:8080/"},"executionInfo":{"status":"ok","timestamp":1666090444526,"user_tz":-180,"elapsed":11,"user":{"displayName":"Михаил Яковлев","userId":"08377244301379534836"}},"outputId":"cd05354c-b349-4ac9-aa3d-cf0c246ed95d","id":"NwsDa4VxuHdj"},"execution_count":null,"outputs":[{"output_type":"execute_result","data":{"text/plain":["CNN(\n","  (embeddings): Embedding(13194, 100, padding_idx=0)\n","  (dropout_1): Dropout(p=0.2, inplace=False)\n","  (conv_0): Conv2d(1, 100, kernel_size=(3, 100), stride=(1, 1))\n","  (conv_1): Conv2d(1, 100, kernel_size=(4, 100), stride=(1, 1))\n","  (conv_2): Conv2d(1, 100, kernel_size=(5, 100), stride=(1, 1))\n","  (fc): Linear(in_features=300, out_features=2, bias=True)\n","  (dropout_2): Dropout(p=0.4, inplace=False)\n",")"]},"metadata":{},"execution_count":239}]},{"cell_type":"code","source":["ans = pd.Series()"],"metadata":{"colab":{"base_uri":"https://localhost:8080/"},"executionInfo":{"status":"ok","timestamp":1666090447132,"user_tz":-180,"elapsed":6,"user":{"displayName":"Михаил Яковлев","userId":"0837724430137953
…
